blur.onnx (onnx, 163006 bytes, 6 tensors)

fc1.weight f4 [64, 528]
0	0xbe48a67d	-0.1959476
1	0x3ba82ba4	0.0051321555
2	0x3d5557a5	0.052085537
3	0x3de07102	0.109590545
4	0x3ddfcd2e	0.10927807
5	0x3ddbeb39	0.107382245
6	0x3dce8a74	0.100850016
7	0x3ded903e	0.11599778
8	0x3e11622a	0.14197603
9	0x3e21dd2e	0.1580703
10	0x3e11aeb4	0.142268
11	0x3e291d05	0.16514976
12	0x3df33c0f	0.1187669
13	0x3dd70f1e	0.1050093
14	0x3de7184a	0.1128393
15	0x3df0e417	0.11762255
16	0x3ddad18e	0.10684501
17	0x3dda615c	0.10663101
18	0x3dd6776a	0.10471995
19	0x3dd9b222	0.10629679
20	0x3e008a7a	0.12552825
21	0x3e3f18ea	0.18661848
22	0x3e3e447f	0.18580817
23	0x3e2e6bb2	0.1703327
24	0x3e18f2ca	0.14936367
25	0x3e2abf62	0.16674569
26	0x3dfad902	0.12248422
27	0x3e35b69c	0.17745441
28	0x3ddbff09	0.107420035
29	0x3e12ad23	0.14323859
30	0x3e1f0695	0.15529855
31	0x3defe8f4	0.11714354
32	0x3e3362d6	0.17518172
33	0x3e13a697	0.14419018
34	0x3dd82926	0.105547234
35	0x3e28c5ae	0.16481659
36	0x3e2450d4	0.16046458
37	0x3e127308	0.14301693
38	0x3e2c7a75	0.16843589
39	0x3e067ab4	0.13132745
40	0x3e299449	0.16560473
41	0x3e003721	0.1252103
42	0x3e464f50	0.19366193
43	0x3e0ea51a	0.13930169
44	0x3df94485	0.12171272
45	0x3e2450ca	0.16046444
46	0x3e083b2b	0.13303821
47	0x3e408df4	0.18804151
48	0x3e0d79b9	0.13815965
49	0x3e0242c8	0.12720788
50	0x3e268587	0.16261874
51	0x3dc258d9	0.094896026
52	0x3e0874fe	0.13325879
53	0x3e281c81	0.16417123
54	0x3ded97cc	0.116012186
55	0x3e0db533	0.13838653
56	0x3ddb913e	0.10721062
57	0x3dd10264	0.10205534
58	0x3e2ebccc	0.17064208
59	0x3e05e8f1	0.13077141
60	0x3dbf1a17	0.09331148
61	0x3df7b329	0.12094719
62	0x3e223a97	0.15842663
63	0x3e309e5a	0.17247906
64	0x3e10f1de	0.14154765
65	0x3df6506b	0.12027057
66	0x3e4426f7	0.19155489
67	0x3e3c9046	0.18414411
68	0x3de1e131	0.1102928
69	0x3e0051db	0.12531225
70	0x3e0921ed	0.13391848
71	0x3dbb2441	0.09137774
72	0x3e19db14	0.15024978
73	0x3e204c18	0.15654027
74	0x3e366986	0.17813691
75	0x3ddf5ab5	0.10905973
76	0x3e2c5540	0.16829395
77	0x3e344c2a	0.1760718
78	0x3e22fe99	0.15917434
79	0x3e0ccd41	0.13750173
80	0x3dcf9950	0.10136664
81	0x3e3228ea	0.1739842
82	0x3dbdf6c8	0.092755854
83	0x3de54dd4	0.11196485
84	0x3e1a169f	0.15047692
85	0x3dda3b66	0.106558606
86	0x3ddd0644	0.10792211
87	0x3dc82392	0.097724095
88	0x3ddfa88e	0.10920821
89	0x3e146c34	0.14494401
90	0x3e372f3c	0.17889112
91	0x3e0c9be0	0.13731337
92	0x3e33e5b6	0.17568097
93	0x3df39a95	0.118947186
94	0x3e30c29e	0.1726174
95	0x3e0f1f25	0.13976724
96	0x3dc9a901	0.09846688
97	0x3e17c9d7	0.1482309
98	0x3dede93b	0.11616751
99	0x3e2b94b5	0.16755946
100	0x3e381b1d	0.17979093
101	0x3deba690	0.11506379
102	0x3de42ca8	0.1114133
103	0x3e083ab9	0.13303651
104	0x3e26be30	0.16283488
105	0x3de840a0	0.11340451
106	0x3e0d8862	0.13821557
107	0x3dd60ceb	0.10451683
108	0x3e202c6e	0.15641949
109	0x3e14a10c	0.1451456
110	0x3e2aed08	0.16691983
111	0x3e039164	0.12848431
112	0x3e2e8c26	0.1704565
113	0x3e1b769f	0.15181969
114	0x3e220936	0.15823826
115	0x3de19b73	0.11015978
116	0x3ddca2eb	0.10773262
117	0x3df132ec	0.11777291
118	0x3def76cb	0.1169258
119	0x3e37895c	0.17923492
120	0x3e28eaf5	0.16495879
121	0x3ddbed07	0.10738569
122	0x3ded7581	0.11594678
123	0x3e334f71	0.17510773
124	0x3e21789f	0.1576867
125	0x3e074941	0.13211538
126	0x3e26937f	0.16267203
127	0x3dfa35cc	0.12217292
128	0x3e1c1995	0.15244134
129	0x3e4642d6	0.19361433
130	0x3e19b019	0.15008582
131	0x3dfa7762	0.12229802
132	0x3e1839a5	0.1486574
133	0x3e0242b4	0.12720758
134	0x3e1ca88b	0.15298669
135	0x3e3661ee	0.17810795
136	0x3e01b3b9	0.12666215
137	0x3e3dfe86	0.18554124
138	0x3e01b7ea	0.12667814
139	0x3e3686e3	0.17824893
140	0x3e208c91	0.15678622
141	0x3e2a9a70	0.16660476
142	0x3e393aff	0.18088911
143	0x3e0fef72	0.14056185
144	0x3e1fee7d	0.1561832
145	0x3e25adfa	0.16179648
146	0x3e2bef2b	0.16790454
147	0x3e4534e0	0.19258451
148	0x3e15365a	0.14571515
149	0x3e51f1c6	0.20502385
150	0x3e055c8d	0.13023587
151	0x3e4abb34	0.19797975
152	0x3e326289	0.174204
153	0x3e3eb804	0.18624884
154	0x3e2ed674	0.17073995
155	0x3df909fd	0.12160108
156	0x3e13d213	0.14435606
157	0x3e0f3e07	0.13988505
158	0x3e104d37	0.14091955
159	0x3e3b5590	0.18294358
160	0x3e32befc	0.17455667
161	0x3e43f468	0.19136202
162	0x3e00a34d	0.12562294
163	0x3dd95b5e	0.1061313
164	0x3e433196	0.19061884
165	0x3e239ddc	0.15978187
166	0x3e070f2f	0.13189386
167	0x3e3b6b8e	0.18302748
168	0x3e3b08ee	0.18265125
169	0x3e3abea7	0.1823679
170	0x3e11c7cc	0.14236373
171	0x3e3c3c65	0.18382414
172	0x3e3abce5	0.1823612
173	0x3dee7a5f	0.11644434
174	0x3de4d202	0.11172868
175	0x3e16722f	0.14691995
176	0x3e03d2fc	0.12873453
177	0x3e209880	0.15683174
178	0x3e4ae451	0.19813658
179	0x3e1f7ef1	0.15575768
180	0x3e325388	0.17414677
181	0x3e238d7d	0.15971942
182	0x3e21623d	0.15760131
183	0x3e0506c4	0.12990862
184	0x3e274987	0.16336642
185	0x3e29beda	0.1657671
186	0x3df6e15d	0.120547034
187	0x3df7b970	0.12095916
188	0x3e14e8e8	0.14541972
189	0x3e25b4a0	0.16182184
190	0x3e37d76f	0.17953275
191	0x3e051ebc	0.13000005
192	0x3df39613	0.11893859
193	0x3e2d8eff	0.1694908
194	0x3e23ae00	0.15984344
195	0x3e34affe	0.1764526
196	0x3e17065c	0.1474852
197	0x3e264bd0	0.16239858
198	0x3e3944c3	0.18092637
199	0x3e2abe9e	0.16674277
200	0x3de0b6b2	0.10972346
201	0x3e3ddc6b	0.18541114
202	0x3e4224a8	0.18959296
203	0x3dfb6a33	0.12276115
204	0x3e3c4c3a	0.18388453
205	0x3e328b60	0.1743598
206	0x3e0f3c56	0.1398786
207	0x3e3668b9	0.17813386
208	0x3de2f4b1	0.110818274
209	0x3e1fda08	0.15610516
210	0x3e3b6779	0.1830119
211	0x3e308afa	0.17240515
212	0x3e380cfe	0.17973706
213	0x3dff667d	0.1247072
214	0x3e3be586	0.18349275
215	0x3e341acb	0.17588346
216	0x3dfb06b5	0.12257139
217	0x3e2ddb4a	0.16978183
218	0x3e3c8526	0.18410167
219	0x3e2a3b8c	0.16624278
220	0x3e245801	0.16049196
221	0x3e109da2	0.14122632
222	0x3e02cadb	0.12772696
223	0x3e23787b	0.15963928
224	0x3e22da7a	0.15903655
225	0x3e240eef	0.16021322
226	0x3e2fd03e	0.17169282
227	0x3e12fe72	0.14354876
228	0x3e1cbd61	0.15306617
229	0x3e0fe475	0.14051993
230	0x3e01c50a	0.1267282
231	0x3e073355	0.13203175
232	0x3e325105	0.17413719
233	0x3df9ce53	0.12197556
234	0x3e24c9cc	0.16092604
235	0x3dd8a5f1	0.10578526
236	0x3e2ef83c	0.17086881
237	0x3e371235	0.17878039
238	0x3e0ecce7	0.13945352
239	0x3e1fc5f8	0.15602863
240	0x3dd670ff	0.10470771
241	0x3e351fa0	0.17687845
242	0x3df3d1b5	0.11905233
243	0x3df7d76d	0.12101636
244	0x3e329301	0.1743889
245	0x3df683f4	0.12036887
246	0x3e25970e	0.16170904
247	0x3ddcdd67	0.10784417
248	0x3dcc3221	0.09970499
249	0x3e288941	0.16458608
250	0x3e0271de	0.1273875
251	0x3e31b50a	0.17354217
252	0x3e22b11b	0.15887873
253	0x3e333541	0.17500784
254	0x3e08c503	0.13356404
255	0x3deb2580	0.11481762

fc1.bias f4 [64]
0	0xbca11a7d	-0.01966595
1	0xbcca9be6	-0.024732541
2	0x3de2b6ab	0.110699974
3	0x3ce5426f	0.02798578
4	0xbb06d040	-0.0020570904
5	0xbdc2c433	-0.09510078
6	0x3a9810b8	0.0011601662
7	0x3c16a717	0.009195111
8	0xbdd42e59	-0.103604026
9	0x3c0dc77c	0.008653518
10	0xbce7617b	-0.028244724
11	0xbd103c82	-0.035213955
12	0x3e183fef	0.14868139
13	0x3da92dac	0.08260664
14	0x3cb9a2f7	0.022660716
15	0xbcced74d	-0.025249148
16	0xbd1a6d25	-0.037701745
17	0x3cc05914	0.023479976
18	0xbc10d1a1	-0.008839042
19	0xbb6e3d03	-0.0036352284
20	0xbcbec28a	-0.023286123
21	0xbde76fa9	-0.11300594
22	0xbba16802	-0.004925729
23	0xbcaf422f	-0.021393863
24	0xbdc60ab6	-0.09670012
25	0xbd4b956f	-0.049703058
26	0x3ce757c2	0.028240088
27	0x3c080134	0.008301068
28	0x3e3a2df1	0.18181588
29	0xbd2e88f1	-0.042611066
30	0xbca44d5b	-0.020056417
31	0x3d1420a2	0.036163934
32	0x3e43e890	0.19131684
33	0xbcda0cc5	-0.026617417
34	0xbcf3e9c3	-0.029774552
35	0x3dc2f4ba	0.09519334
36	0xbd08945a	-0.033344604
37	0xbdb9b8a9	-0.09068424
38	0x3ccc45cb	0.024935624
39	0xbc84f310	-0.016229182
40	0x3e1b58ce	0.15170595
41	0x3da8ea29	0.082477875
42	0x3dbb4550	0.0914408
43	0x3d9f8f5d	0.07791016
44	0x3db0a3bc	0.0862498
45	0xbce2e7a0	-0.027698338
46	0xbda43d65	-0.080195226
47	0xbd0c1882	-0.03420306
48	0xbde64a3a	-0.11244626
49	0xbccbbfd1	-0.024871739
50	0xbd45e6f6	-0.048315965
51	0x3d9c339a	0.0762703
52	0xbc0d43c8	-0.008622117
53	0xbdd4708c	-0.10373029
54	0x3beb4325	0.007179635
55	0xbd0e7be7	-0.03478613
56	0xbc049c78	-0.008093946
57	0xbdc4a546	-0.09601836
58	0x3c967b63	0.018369382
59	0xbd2b1dc9	-0.041776452
60	0xbcc03d4a	-0.023466725
61	0x3ce1513d	0.027504558
62	0xbdac20ea	-0.08404715
63	0x3e18a4b0	0.14906573

fc2.weight f4 [32, 64]
0	0xbdb154e3	-0.08658769
1	0xbdeae136	-0.11468737
2	0x3e241166	0.16022262
3	0x3dd7f680	0.10545063
4	0xbc63b1dd	-0.013897386
5	0xbe6577ef	-0.22409032
6	0x3d8c2605	0.06843189
7	0xbd9fdacb	-0.07805403
8	0xbe3f0c99	-0.1865715
9	0xbd0e49d7	-0.034738388
10	0x3eac14f3	0.33609733
11	0xbcecbf48	-0.028899804
12	0x3e32cf45	0.1746188
13	0x3de2fe09	0.110836096
14	0x3e0b9d48	0.13634217
15	0xbe00fa00	-0.12595367
16	0x3de61c1e	0.11235832
17	0x3e8f2e25	0.27964893
18	0xbd997918	-0.074938
19	0x3c13a693	0.009011882
20	0x3dabdefe	0.08392142
21	0xbe95ff88	-0.29296517
22	0x3db88010	0.09008801
23	0x3db5a134	0.08868638
24	0xbe9131d6	-0.28358334
25	0xbe8f33e3	-0.27969274
26	0x3eae4621	0.3403788
27	0x3d0466cc	0.032324597
28	0x3e9821ec	0.2971338
29	0xbdc8b54c	-0.09800205
30	0x3df55683	0.119793914
31	0x3dcf534c	0.101233095
32	0x3e4dee5c	0.20110458
33	0xbe0ff314	-0.1405757
34	0xbdd4e7a7	-0.10395747
35	0x3e867579	0.262615
36	0x3db132a6	0.086522385
37	0xbe3a68b6	-0.18204007
38	0x3e9a64d8	0.30155063
39	0xbd2f23e4	-0.042758837
40	0x3e9e1c15	0.308808
41	0x3e97573b	0.2955874
42	0x3e903bac	0.28170526
43	0x3e06dd11	0.13170268
44	0x3e8d0ce4	0.27548897
45	0xbddd8566	-0.10816459
46	0xbe70a7b2	-0.2350147
47	0x3c57b680	0.01316607
48	0xbea73198	-0.32655025
49	0x3edc02e1	0.42970946
50	0xbe9d596e	-0.30732292
51	0x3e78e968	0.24307787
52	0x3c0b6fd0	0.008510545
53	0xbe6a3ac9	-0.22873987
54	0xbdddcdcd	-0.10830269
55	0xbdb5500c	-0.08853158
56	0xbde44732	-0.11146392
57	0xbeae12fd	-0.33998862
58	0xbd3d3a5b	-0.04619823
59	0xbdca2f4c	-0.098723024
60	0xbdc81a68	-0.097706616
61	0x3ec8d40a	0.39224273
62	0xbe2f32ea	-0.17109266
63	0x3e3df658	0.18551004
64	0xbd3a1f56	-0.04544004
65	0x3df8e912	0.1215383
66	0x3da141c8	0.07873875
67	0x3d73bf9f	0.059508916
68	0xbddf8fc8	-0.10916096
69	0x3c97e2ee	0.018540826
70	0xbd9686bd	-0.07349918
71	0xbdacadb2	-0.08431567
72	0xbb9a86ca	-0.004715775
73	0xbdbed2d8	-0.09317559
74	0xbd07ebc8	-0.033183843
75	0xbd4b2d80	-0.04960394
76	0xbc993568	-0.018702224
77	0x3de72b96	0.1128761
78	0xbdf05b3b	-0.11736151
79	0x3dc4d8ac	0.096116394
80	0xbd4fef24	-0.05076517
81	0xbd36a4b8	-0.04459068
82	0x3d8f90ee	0.07010065
83	0x3b234cc0	0.0024917573
84	0x3db92d4c	0.09041843
85	0xbd0b5832	-0.034019656
86	0x3dd7fb22	0.10545947
87	0xbca0c3e0	-0.01962465
88	0x3d176750	0.03696376
89	0x3dd39620	0.103313684
90	0xbccd5278	-0.025063738
91	0xbde72b66	-0.112875745
92	0x3a4d7400	0.0007837415
93	0x3c4543d0	0.012040094
94	0xbdb0597c	-0.08610818
95	0x3d480e07	0.048841503
96	0x3defdab0	0.11711633
97	0x3da848f8	0.08217043
98	0xb9f1be00	-0.00046108663
99	0xbdbc2d72	-0.091883555
100	0x3d5c4320	0.053774953
101	0xbde3c91b	-0.11122342
102	0x3dbec2fa	0.093145326
103	0xbdbac9b6	-0.091205046
104	0x3d579528	0.05263248
105	0xbdf89e72	-0.12139596
106	0x3d249920	0.040185094
107	0xbdf2892c	-0.1184257
108	0x3ccf2380	0.025285482
109	0x3da04f7e	0.07827662
110	0xbdd11de3	-0.102107786
111	0x3dafa8f6	0.085771486
112	0xbd8579a4	-0.06517342
113	0x3b840b00	0.0040296316
114	0x3d9678a3	0.073472284
115	0x3ddf380c	0.10899362
116	0x3df4b05c	0.119477004
117	0xbd9b414d	-0.075808145
118	0x3dac32a2	0.08408095
119	0xbd783154	-0.060593918
120	0xbdfd0782	-0.123549476
121	0xbde6bf54	-0.11266962
122	0xbcff658e	-0.031176355
123	0x3dfa8e4c	0.12234172
124	0xbbeabfa0	-0.0071639568
125	0x3d9ce590	0.07660973
126	0x3cf827d2	0.030292425
127	0xbca0b7ca	-0.019618887
128	0x3d05800a	0.03259281
129	0xbddf8292	-0.10913576
130	0xbe4eced1	-0.20196082
131	0x3e14e419	0.14540137
132	0xbcadcf40	-0.021216989
133	0x3df9dcd2	0.12200321
134	0x3e9d364e	0.30705494
135	0x3c187f19	0.009307646
136	0x3c09086f	0.008363827
137	0x3e60f0c9	0.21966852
138	0xbf4ea3c1	-0.8071862
139	0xbdd56f0e	-0.104215726
140	0xbe3153f0	-0.17317176
141	0xbea02eb2	-0.31285626
142	0x3e0c2961	0.1368766
143	0x3d52b66e	0.05144351
144	0x3de693de	0.11258672
145	0xbe893d4e	-0.26804584
146	0x3c8b3df8	0.016997322
147	0xbd7fc590	-0.06244427
148	0x3bad3cc0	0.005286783
149	0x3e2c2743	0.16811852
150	0xbd289a70	-0.041162908
151	0x3d64d12d	0.055863548
152	0xbd1a598a	-0.037683047
153	0x3e09b8da	0.13449422
154	0xbebe772f	-0.37200305
155	0x3e03d4dc	0.12874168
156	0xbe32f6eb	-0.17477004
157	0x3c1ef9e0	0.0097031295
158	0x3cc3bde0	0.02389425
159	0x3decedd5	0.115688
160	0xbe8d2002	-0.27563483
161	0xbcef5583	-0.02921558
162	0x3db19bf4	0.08672324
163	0xbe5f3dea	-0.21800962
164	0xbdf8ecb6	-0.12154524
165	0xbcd02653	-0.0254089
166	0xbebeb78e	-0.37249416
167	0xbdd10d7c	-0.1020765
168	0xbe21dfb9	-0.15808
169	0xbc796322	-0.015221389
170	0xbe616bf1	-0.22013833
171	0xbe113b40	-0.14182758
172	0xbdd06237	-0.10174983
173	0x3dcb2656	0.099194214
174	0x3cf65c09	0.030073183
175	0x3c7a2e70	0.015269861
176	0x3da14db3	0.07876148
177	0xbf27d17f	-0.6555404
178	0x3e056d3b	0.1302995
179	0xbe381ede	-0.17980525
180	0x3c292e90	0.010326043
181	0x3de1a0d2	0.11017002
182	0x3c9c7190	0.01909712
183	0x3d533d48	0.051572114
184	0xbd7bce30	-0.061475933
185	0x3e082367	0.13294755
186	0x3e30a071	0.17248704
187	0xbb65c340	-0.0035059005
188	0x3d313830	0.043266475
189	0xbee4e9b0	-0.4470954
190	0x3e2d90a1	0.16949703
191	0x3ce349e8	0.027745202
192	0xbe026b1c	-0.12736171
193	0x3c699270	0.014256105
194	0x3e0c6754	0.13711292
195	0x3df76620	0.12080026
196	0x3d34ef52	0.044173546
197	0xbd8a3fee	-0.06750475
198	0x3e6bf55f	0.2304282
199	0xbd8588fa	-0.06520267
200	0xbe369c0a	-0.17832962
201	0x3d942ace	0.07234727
202	0x3f343baf	0.7040357
203	0x3d26632a	0.040621914
204	0x3e8df199	0.27723387
205	0x3e6b33db	0.22969
206	0x3c5d8745	0.01352102
207	0xbd43d43f	-0.047809836
208	0x3dde03f8	0.10840601
209	0x3f0e5225	0.5559409
210	0x3db35169	0.08755762
211	0x3df2c09f	0.11853146
212	0x3debe59c	0.11518404
213	0xbd7fe0e1	-0.06247032
214	0xbd96fd14	-0.073724896
215	0x3d2deabd	0.042460192
216	0xbd3d5d3f	-0.046231505
217	0xbe0ecc7f	-0.13945197
218	0x3f08df8b	0.534661
219	0xbbd7894a	-0.0065776454
220	0x3ddce5da	0.10786028
221	0x3ddccf3a	0.10781713
222	0xbb9dc61b	-0.004814876
223	0x3e1292c5	0.143138
224	0x3ea17637	0.31535503
225	0xbe0e0fb6	-0.13873181
226	0x3de814bf	0.11332082
227	0x3e841bdc	0.25802505
228	0xbd85e734	-0.06538239
229	0xbd71eef4	-0.059065774
230	0x3ed7245c	0.42019928
231	0xbde31ee9	-0.1108988
232	0x3d8be3cd	0.06830559
233	0x3d894da6	0.067042634
234	0x3e82e033	0.25561675
235	0x3e2e20c6	0.1700469
236	0x3e979e93	0.2961317
237	0x3dca3a12	0.09874357
238	0xbe479cfc	-0.19493479
239	0x3dc97481	0.098366745
240	0xbd54a018	-0.05191049
241	0x3f518188	0.81838274
242	0xbd4c67d9	-0.049903724
243	0x3e8bae9e	0.2728166
244	0xbd496160	-0.04916513
245	0xbdd9a212	-0.106266156
246	0x3da675e4	0.081279546
247	0xbd934c6a	-0.07192309
248	0xbdc9c9f6	-0.09852974
249	0xbe0e0650	-0.13869596
250	0xbdb5f434	-0.08884469
251	0x3cc05f20	0.02348286
252	0x3dc89480	0.09793949
253	0x3f091035	0.53540355
254	0xbdd6936f	-0.104773395
255	0x3e79d61f	0.24398087

fc2.bias f4 [32]
0	0x3e54d35f	0.20783757
1	0xbd7e7a53	-0.062128376
2	0xbd06549c	-0.032795534
3	0x3e9c93c8	0.30581498
4	0x3d6569e5	0.056009192
5	0xbde5ba93	-0.11217227
6	0x3ed3df89	0.4138148
7	0xbc70b8f2	-0.014692532
8	0x3e3f60a2	0.18689206
9	0xbbb83ab1	-0.005622231
10	0x3e3d60a9	0.18493904
11	0x3d0d3a38	0.03447935
12	0xbdb44d75	-0.08803836
13	0xbdde785e	-0.10862802
14	0x3c4fb057	0.01267632
15	0x3d961f32	0.07330169
16	0xbd22f12a	-0.039780773
17	0x3e7040c0	0.234622
18	0x3e69d3da	0.22834721
19	0xbb85abc0	-0.004079312
20	0xbdf2da17	-0.118580036
21	0x3da9031b	0.082525454
22	0x3c755b45	0.014975374
23	0xbce1408e	-0.027496602
24	0xbdd4f6a6	-0.10398607
25	0xbdf1baee	-0.11803232
26	0x3eb1901b	0.34680256
27	0xbe032b76	-0.12809548
28	0xbc88c79a	-0.01669674
29	0x3cc33413	0.023828542
30	0x3d28f8e8	0.041253
31	0xbd8558cf	-0.065110795

fc3.weight f4 [2, 32]
0	0x3ec30589	0.3809016
1	0x3e0060b7	0.12536894
2	0xbdb72b05	-0.08943752
3	0x3efe2929	0.49640778
4	0xbe8d6550	-0.27616358
5	0x3df2545d	0.11832497
6	0x3f6439ea	0.8915087
7	0xbec0e331	-0.37673333
8	0x3e8f3e9e	0.2797746
9	0xbdd1548e	-0.10221206
10	0x3eb1c708	0.3472216
11	0xbec04b47	-0.37557432
12	0xbd155337	-0.036456313
13	0xbd3f3ff0	-0.046691835
14	0x3ed15731	0.40886834
15	0xbe3211f2	-0.17389658
16	0xbd3ec8ff	-0.046578404
17	0x3eb84982	0.35993582
18	0x3eb9c4a6	0.36282843
19	0x3df78312	0.120855466
20	0x3e17b496	0.14814982
21	0xbe9b6648	-0.30351472
22	0xbeae90d8	-0.34094882
23	0xbeb80916	-0.35944432
24	0x3e0f76a7	0.14010106
25	0xbdb9fe18	-0.09081668
26	0x3ee6d990	0.45087862
27	0xbd9e0116	-0.07715051
28	0x3d9d14ea	0.07670005
29	0xbe778710	-0.24172616
30	0xbe2c76ed	-0.16842242
31	0x3d8f8005	0.0700684
32	0xbe570c0f	-0.21000694
33	0x3dc85920	0.09782624
34	0x3eaa0b14	0.33211577
35	0xbebc4dfa	-0.3677824
36	0x3f026f2b	0.5095088
37	0x3d0031bd	0.031297434
38	0xbf84f044	-1.0385823
39	0x3e09a30f	0.13441108
40	0xbebd3206	-0.36952227
41	0x3da7946e	0.081826076
42	0xbe9ccb72	-0.30623966
43	0x3e8dba27	0.27681085
44	0xbc01360d	-0.007886422
45	0x3e156325	0.14588602
46	0xbf09cc09	-0.5382696
47	0x3ead2977	0.33820698
48	0xbd7f9650	-0.06239921
49	0xbef9ab53	-0.48763523
50	0xbefaaf18	-0.4896171
51	0xbdd1382b	-0.10215791
52	0xbe24364f	-0.16036342
53	0x3ea4e418	0.32205272
54	0x3e1ca503	0.15297322
55	0x3e97330f	0.29531142
56	0x3db56652	0.08857407
57	0x3dbd4141	0.09240962
58	0xbe1ecd09	-0.15507902
59	0xbd94bc4f	-0.072624795
60	0x3d38e0d4	0.045136288
61	0x3e43b894	0.1911338
62	0x3eb85df6	0.36009187
63	0xbda10d00	-0.07863808

fc3.bias f4 [2]
0	0xbca2345d	-0.01980036
1	0xbe2989b8	-0.16556442
